pretrained/color.pt (torch, 70240 bytes, 23 tensors)

fc_c.0.weight f4 [32, 32]
000000 15 c8 11 3e 4c d9 c7 bd d6 78 2d 3c e7 b5 e1 bd
       0.14236481 -0.09758243 0.010587892 -0.11021023
000010 95 7e d8 bd 04 35 84 3d 13 6a 84 3d e7 9e 25 be
       -0.105710186 0.064554244 0.064655446 -0.16173898
000020 b4 fa 80 3e 4f c3 8e 3e 44 97 1a 3d 1e ae 24 bb
       0.2519127 0.27883384 0.037741914 -0.0025128196
000030 a0 6c 35 be ee c8 24 3e 78 d9 70 be 93 c7 8d 3e
       -0.17717218 0.16092274 -0.23520458 0.27691326
000040 4f 6d 8f 3d 67 b1 ac bd c3 78 34 bd b4 b7 88 be
       0.07003271 -0.08432274 -0.04406048 -0.26702654
000050 61 4b 63 3e b2 73 82 3c a0 1e fd bc 03 92 41 be
       0.22196724 0.015924308 -0.030898392 -0.18903355
000060 8e 76 c1 bc a8 dd 1c be ce 48 2c bd 3e 4d 9b be
       -0.023616102 -0.1531893 -0.04206162 -0.3033237
000070 a1 56 84 3e 53 ed 29 3e 2f 15 f9 bd 67 45 a8 3c
       0.25847343 0.16594438 -0.121622436 0.020540906
000080 29 2f 62 3d 61 78 e8 3c ae ca 92 bd ae 80 1b 3d
       0.055220757 0.028377714 -0.07167564 0.037964515
000090 4f 95 90 3d 0c 6c 84 3d d0 c6 1c be 8d c1 2e 3d
       0.07059728 0.06465921 -0.15310216 0.042665053
0000a0 fb 90 b1 bd 84 7b 77 be a9 2c 90 bd c9 69 0a 3e
       -0.08670231 -0.24168211 -0.07039768 0.13516916
0000b0 25 67 6c 3e dc d0 e6 bd f6 f7 75 3d a5 bd a9 bd
       0.23086222 -0.112703055 0.060050927 -0.08288125
0000c0 45 29 1a 3d 6d 00 27 bd c9 27 41 bd 85 de a8 3d
       0.037637014 -0.04077189 -0.047157083 0.08245567
0000d0 52 17 1b be b4 71 3e 3e a5 e2 83 3d 87 c9 11 bc
       -0.15145615 0.18598062 0.064397134 -0.0088981455
0000e0 3c b6 2a 3d 63 a6 f4 bd 7d a9 c3 bd 74 96 31 3e
       0.0416777 -0.11945798 -0.09553812 0.1734255
0000f0 52 6e 5a be 2d 01 69 bd 36 a9 49 3c 8d c4 1d 3e
       -0.21331146 -0.056885887 0.012308409 0.1540701
000100 7d ac 18 be c8 f5 84 3d 92 d2 83 bd 44 9e 5e 3e
       -0.14909549 0.064921916 -0.064366475 0.21740061
000110 73 c1 92 bd bc 45 6b 3d 23 f4 2d 3e 11 17 6f be
       -0.07165804 0.05743955 0.16987662 -0.23348643
000120 63 6c e1 3d f2 c9 49 3e d9 4b 86 be 9e 46 2b bd
       0.11007001 0.19705942 -0.26229742 -0.041815393
000130 6b 1c fe bd 9d 60 16 3e 63 4f 83 be 2d f1 72 3e
       -0.12407764 0.14685293 -0.25646505 0.23724814
000140 b2 5f 5c be c9 f1 be 3d b1 2c 41 3e 67 35 08 be
       -0.2152088 0.093234606 0.18864705 -0.13301621
000150 cd 81 44 3e 37 01 e0 bb 3d 73 c2 bd b1 eb 68 3d
       0.1919014 -0.0068360823 -0.09494636 0.056865398
000160 28 33 17 bc 68 8d 44 bd fd 48 17 bd 3c f6 b2 bd
       -0.009228505 -0.047986418 -0.03693484 -0.08738372
000170 e3 17 94 3e 99 14 8e 3e 7b 1f 15 3d 0c 8e 39 be
       0.28924474 0.2775009 0.036406975 -0.18120593
000180 6e 03 80 bd 02 7a be bd 24 4f 46 bd 5f a2 4f 3c
       -0.06250654 -0.09300615 -0.048415318 0.01267299
000190 52 98 04 3e 92 fa c2 bd c9 2c 1a 3e 8d 45 5a bd
       0.1294873 -0.09520449 0.15056147 -0.053288985
0001a0 e8 09 8e 3e 3e a2 56 3e 27 2d 44 bd 38 2a b7 bc
       0.27741933 0.20960328 -0.047894623 -0.022358999
0001b0 9a 63 44 bb c1 5d 1f 3c aa 31 72 bd 4b 8b 85 bb
       -0.0029966594 0.0097269425 -0.059129395 -0.004075443
0001c0 c6 99 79 3c 33 f2 5c 3e 28 3a 5c 3e a4 84 19 bd
       0.015234416 0.21576767 0.2150656 -0.03748001
0001d0 f5 04 b1 3c da f3 e6 bd 0f b4 fd 3d db 1c 9d 3d
       0.021608809 -0.1127698 0.12387859 0.07671519
0001e0 64 ba c8 3d ce d3 1c be 0f 26 dc 3d e4 2a 4f be
       0.09801176 -0.15315172 0.107494466 -0.20231205
0001f0 e7 7f 82 3e b4 85 4e 3e a9 b1 28 bd 7c dc 6b be
       0.25488207 0.20168191 -0.041185055 -0.23033327
000200 32 32 4b bd 3d 42 5d 3e 46 d2 b9 bc d8 b8 11 3e
       -0.049608417 0.21607299 -0.022683274 0.14230669
000210 82 3b ab 3d 09 5e 18 3e 37 1a 89 3e 79 36 6c be
       0.083609596 0.14879622 0.26777813 -0.23067655
000220 2c 47 f8 3d 7f 65 a5 bd 7c 9b 8c be ab a8 9c bd
       0.1212295 -0.080759995 -0.27462375 -0.07649358
000230 00 2e 51 be 1a a5 74 3e 34 bf 94 3d d8 11 22 3e
       -0.20427704 0.23891106 0.072630316 0.1582712
000240 12 7a a7 3c 9b f7 81 bd 98 e6 cf 3d 3e ea de bc
       0.02044395 -0.06346055 0.10151404 -0.027211305
000250 fa 02 2e 3e d7 1f 09 bd 94 a4 c4 3d 05 c9 86 be
       0.16993323 -0.03347763 0.09601703 -0.2632524
000260 35 96 7b 3e e2 19 3d bd f8 61 2e bd 38 32 ff bd
       0.24569018 -0.046167262 -0.0425739 -0.1246075
000270 d2 ec c7 bc e2 51 61 3e 63 11 df 3d 99 16 61 3b
       -0.024404917 0.22003892 0.10891988 0.0034345745
000280 ae 55 c2 3d 24 d7 fc 3d 08 0d 64 be 27 43 02 3e
       0.09488998 0.12345722 -0.22270596 0.12720929
000290 b3 b4 c7 3d 90 35 53 3d cb 12 83 3d 86 d8 6e 3c
       0.097512625 0.051564753 0.06400069 0.01457799
0002a0 f7 a9 19 3e 92 b5 a7 bd 6d 5e 06 3e 2a 93 ef 3c
       0.15006243 -0.08188929 0.13121958 0.029244978
0002b0 f0 d5 28 be 62 c9 bf 3d 13 a2 9e 3d 39 b5 dd bc
       -0.1648786 0.093645826 0.07745757 -0.027063953
0002c0 f3 0b 26 be b8 cd 5a bd a5 28 08 be 62 64 93 3d
       -0.16215496 -0.053418845 -0.13296755 0.07196881
0002d0 19 f0 53 3e 44 19 3d bc 0c 3e 61 3d b7 02 16 3e
       0.20697059 -0.011541668 0.054990813 0.14649473
0002e0 cb 83 3f bd 97 76 16 3d 01 cf 12 be 07 f9 9b bd
       -0.046756547 0.03673419 -0.14336778 -0.076158576
0002f0 0d a0 89 3d 42 ac 02 bd 6a 80 55 3d e8 d4 fa 3d
       0.067199804 -0.03190256 0.05212442 0.1224764
000300 8c 5a 21 bc 92 6a e0 3d 37 78 91 bd cb 8a 55 be
       -0.009848248 0.10957827 -0.07103007 -0.20853727
000310 42 9e 1a be 46 09 90 3d 7b a4 ea 3c a8 44 37 3e
       -0.15099433 0.07033019 0.028642884 0.17897284
000320 25 ae 5f 3d 11 be 0b bd a0 cb 37 bc cf 92 60 be
       0.054609437 -0.03411681 -0.011217982 -0.21931003
000330 bf c7 b1 3d 36 17 80 bd 01 68 31 bd 10 1d 7f be
       0.08680677 -0.06254427 -0.043312076 -0.2491343
000340 0a ec 68 3d d1 11 6a 3b ae 4e dc 3d 96 ea 91 bd
       0.05686573 0.0035716186 0.107571945 -0.07124822
000350 b3 c8 54 3d 9c 9d 03 be 35 7c 91 bd 72 e8 f3 bd
       0.051949214 -0.12853092 -0.07103769 -0.1190957
000360 c5 ba 03 3d f3 28 f5 bd 31 34 33 bc 2b 1b 08 3d
       0.03216054 -0.11970701 -0.010937736 0.033229034
000370 70 dd bf 3d 69 f2 6a be b6 cf 60 3e bd f5 d4 3d
       0.09368408 -0.22944035 0.21954235 0.10398433
000380 09 50 30 3e 34 6e 43 bd 86 61 27 be 5f a7 e2 bd
       0.17218031 -0.04771252 -0.16345796 -0.1106708
000390 c0 5b e7 3c af 73 04 bc 41 38 17 3e 4c bb 8a 3d
       0.028241992 -0.008084222 0.14767553 0.06774005
0003a0 9e 4d 27 3e 35 0c 80 3e e4 70 3b bd 4c 20 ef bc
       0.16338202 0.25009313 -0.045761958 -0.029190205
0003b0 ea 0b 1f be d2 bc 9a 3e 98 e6 a5 3d 42 b6 7d 3e
       -0.15531889 0.30222183 0.08100623 0.24776557
0003c0 93 d7 b2 3d ed 40 67 3e e1 87 7f 3e ef 06 6b 3d
       0.08732524 0.22583361 0.24954177 0.05737966
0003d0 a5 44 15 bd cf 1d 66 bd aa b0 73 3d 3d c1 1d be
       -0.036442418 -0.05618077 0.05949465 -0.15405746
0003e0 13 27 16 3d c7 5c 8d 3d 68 bd 08 3d dd 25 cf bc
       0.036658358 0.069024615 0.033383757 -0.02528661
0003f0 37 bb 40 3e 68 22 8e bd 5b a2 35 be 63 68 58 3b
       0.18821417 -0.06940156 -0.17737715 0.0033021204

fc_c.0.bias f4 [32]
000000 10 f6 95 3e 03 90 92 bd 84 16 8e bd a6 e4 21 bd
       0.29289293 -0.07156374 -0.06937888 -0.039524697
000010 dd 3d b3 3a 44 8b 5c 3e 4a c6 15 3d 7e c8 24 be
       0.0013675053 0.215375 0.036566056 -0.16092107
000020 31 2d bb bd 81 2c a7 3d c5 5d aa bd 4d 25 9b bd
       -0.09139479 0.08162785 -0.08318666 -0.07575474
000030 33 3f 99 3c 27 4e 20 bc ca a1 b8 bd 72 ea 24 3e
       0.018706894 -0.009784258 -0.09015234 0.16105059
000040 4e fd 7a 3e a3 b2 26 3e 00 d5 4f 3e a1 dd 22 3e
       0.2451069 0.16279082 0.20296097 0.15904857
000050 68 01 84 3d 6e 66 8f bc 9b 56 5d 3e 25 07 8c bd
       0.06445581 -0.017504897 0.21615069 -0.068373
000060 76 46 e0 bd b1 8d 54 3d 0d b2 2d 3e fe a8 80 bd
       -0.10950939 0.05189294 0.16962452 -0.06282233
000070 ff 85 e3 39 1a 2d f3 3d d7 a3 c5 3c d5 19 4e 3e
       0.0004339665 0.11873837 0.024125976 0.20127042

fc_c.1.weight f4 [32, 32]
000000 20 b5 29 be b0 51 e6 3b 76 4e 3f 3e 01 59 68 be
       -0.16573 0.007028781 0.18682274 -0.22690202
000010 7c 30 34 be a2 56 29 be e9 4a 90 be 3e 4f 78 3e
       -0.1759662 -0.16536954 -0.28182152 0.24248978
000020 9b 8e 0f be 0d 15 a9 bd a3 bc 6c 3e 70 b0 f4 bd
       -0.14019243 -0.08255968 0.23118834 -0.11947715
000030 42 ca c5 bc 76 87 a8 be c3 95 d3 3d 94 af 61 bd
       -0.024144296 -0.32915848 0.10331299 -0.055099085
000040 a4 9c 26 be 52 22 3e be 52 bd 22 be ca 5f e0 3d
       -0.16270691 -0.1856778 -0.15892532 0.1095577
000050 ad 35 10 be 19 ad 05 3d 97 d3 1b 3d 1c 61 c7 3d
       -0.14082976 0.032635782 0.038043585 0.09735319
000060 9d 03 64 be bd dc 9c bc f0 a7 05 bd 00 e8 2b 3e
       -0.22267003 -0.019148225 -0.03263086 0.1678772
000070 e3 38 a4 be c4 e4 c1 bc 14 ba 22 3e 7d 38 b1 3c
       -0.3207465 -0.023668654 0.15891296 0.021633381
000080 e4 bf 3e be 40 a7 32 be b6 14 a9 bd b6 2c 96 3d
       -0.18627888 -0.17446613 -0.082559034 0.07332747
000090 d5 7d 37 be 9e 15 ad 3c 3f e1 fb bd 1f e9 61 3d
       -0.17919095 0.021128472 -0.12298822 0.055153962
0000a0 ca 81 8b 3d 1b 88 e0 3c 16 e2 24 3e 55 fb 6c be
       0.06811865 0.02740865 0.1610187 -0.2314275
0000b0 96 11 75 bd 0f bc 23 be 1f 9f d2 bd 83 1a 2b be
       -0.059831224 -0.15989707 -0.10284256 -0.16709332
0000c0 db 3d 9a be 8f ea 35 3d 4f d3 34 be 2b c7 dd 3c
       -0.30125317 0.044413146 -0.17658733 0.02707251
0000d0 d8 63 2a be 7e 86 dd 3c 8e b5 5f 3d d7 e0 fb 3d
       -0.1663965 0.02704167 0.054616503 0.12298744
0000e0 64 49 67 be 7c a3 f4 3d b9 96 b7 bd 3d a0 c7 bd
       -0.2258659 0.11945245 -0.08964295 -0.0974736
0000f0 61 db dc 3d 94 3e 75 bd 8f 23 cd bd c9 b3 53 bd
       0.10784031 -0.059874132 -0.10016548 -0.05168513
000100 6a 00 7e 3b 2a a2 ca 3d c7 8d b9 bd 8d 6b 5c 3c
       0.003875757 0.098942116 -0.09060245 0.0134533765
000110 f1 a7 f8 bb 25 79 25 bd bc c2 d6 bd ea a2 bb bd
       -0.0075883796 -0.040398736 -0.104863614 -0.09161933
000120 e0 5a df bd 04 4f 7c 3e bf 0f 21 3c 4f 6f 4b be
       -0.10906005 0.24639517 0.009830414 -0.1986668
000130 7e 35 90 bc 03 5c 3c 3e a3 ee dc bd 5f b7 9d ba
       -0.017603632 0.18394475 -0.10787704 -0.0012032798
000140 3e 30 87 be 8c ef 2e 3e db 96 a6 3d 6d ef 4b be
       -0.26403993 0.17083567 0.08134242 -0.19915552
000150 d8 47 3f 3e b0 52 0c be 12 ba 1f be ac cf cb 3d
       0.1867975 -0.13703418 -0.15598324 0.0995172
000160 7b 28 34 3e 9a 46 0a be eb 54 4c bc 9c 65 bf 3d
       0.17593567 -0.13503495 -0.012471418 0.09345552
000170 9d ce de 3d 87 79 4d 3e e5 45 d8 bd 1b eb 15 3e
       0.10879252 0.2006589 -0.10560206 0.14640467
000180 c6 c7 3f 3d 0b 0b 01 be 40 75 8f 3e 10 27 ee 3d
       0.04682138 -0.12601869 0.28019142 0.11628544
000190 c8 ec 84 3d 54 ae a4 3b c5 d8 ce 3d d0 af 30 3b
       0.06490475 0.0050256643 0.10099939 0.0026960261
0001a0 ec 28 00 be d6 8b 85 bd 48 45 a5 bd f0 0d 13 be
       -0.1251561 -0.06520812 -0.08069855 -0.14360785
0001b0 02 10 bb bd 88 4d 96 be f8 f5 15 3e 89 02 3e 3c
       -0.091339126 -0.29356027 0.14644611 0.011597284
0001c0 d1 fb a4 3e 9f 7f db bd fd 66 aa bd 35 93 c8 3c
       0.3222337 -0.10717701 -0.08320425 0.024484256
0001d0 7b 06 b4 bd ac 3e 6b 3e 6a 6f 5e 3d 6b 33 87 3d
       -0.087902986 0.22973126 0.05430547 0.06601604
0001e0 9e 54 8c be cc de 74 3c c1 b4 04 3e 3a d1 86 3e
       -0.27408308 0.014945697 0.12959577 0.26331502
0001f0 d3 24 83 be 1a 9f 77 3b 13 8a c1 bc 09 9f e0 bd
       -0.25614032 0.003778404 -0.02362541 -0.109678335
000200 f7 9c e3 bc 95 0f d9 3d 48 be 47 bd 86 12 89 3d
       -0.027784808 0.10598675 -0.04876545 0.06692986
000210 7d 39 1f be a6 66 8d bc c8 73 d7 bd 98 aa ce bc
       -0.15549274 -0.01726086 -0.105201304 -0.02522783
000220 d8 11 5e bd ba 1b 8e 3e 77 3e dc bd e1 f6 ad 3d
       -0.054216236 0.2775553 -0.10754102 0.08494354
000230 fb 3f 1d 3e 85 69 53 3e 1a 68 3d be 68 39 62 3e
       0.15356438 0.20645721 -0.18496743 0.22092211
000240 ee 28 5c bd 17 d5 9e 3d a1 b4 5b 3d 23 14 35 bd
       -0.05374997 0.077554874 0.053639058 -0.044208657
000250 c6 65 5b 3d a9 5e c7 bd ec 6d ed bd 2c ac 89 3a
       0.053563856 -0.09734852 -0.115932316 0.0010503582
000260 f7 02 17 3e ca 35 bf 3d f2 2c b3 bd 28 43 5b 3d
       0.14747225 0.09336431 -0.08748807 0.053530842
000270 4d f3 91 3e b8 b6 c5 bc 9c aa 0a 3e 5b f0 9a 3d
       0.28505936 -0.024134979 0.13541645 0.075653754
000280 42 d1 b4 3d 9e 7f 93 3d c7 77 d2 bc a7 7b c0 3d
       0.08828975 0.072020754 -0.02569188 0.09398585
000290 ef cf 38 3e bf 09 7a 3e 83 f7 b5 3d cd 59 59 be
       0.1804807 0.2441778 0.088851 -0.21225663
0002a0 79 39 b3 3d e4 e8 85 be c2 f9 e1 ba 9b 43 cb bd
       0.087511964 -0.26154244 -0.0017240571 -0.09925004
0002b0 86 25 5a 3d b9 29 4a be b6 a3 df 3c 76 97 24 be
       0.05325844 -0.19742478 0.027299743 -0.16073403
0002c0 24 9d 2a bd 13 e8 96 3d 2d 34 b1 bd ed 28 0a be
       -0.041653767 0.073684834 -0.0865253 -0.13492174
0002d0 16 1d 1c be c0 06 c7 bc 05 7a 0a 3e ee 4f c6 3d
       -0.1524547 -0.02429521 0.1352311 0.09683214
0002e0 66 ba fe 3d 31 d9 57 be 5a 92 2d 3e cf 4a 37 3e
       0.124378964 -0.21078946 0.1695036 0.17899631
0002f0 e3 ea 9a bd 46 d3 9a bd 0c bf d7 bd dd 68 65 be
       -0.07564332 -0.075598285 -0.10534486 -0.22403283
000300 b0 6b d0 bd aa c7 d0 3d a7 45 b6 3d 3f 69 ac bb
       -0.1017679 0.10194333 0.08900004 -0.0052615697
000310 1c 98 71 3e 75 79 ca 3d 3c ce 8e bd b5 52 10 bd
       0.23593181 0.09886447 -0.0697293 -0.035235126
000320 83 a0 17 3e 1d 7b df bc a0 5f 1c 3e 7c ab 45 3e
       0.14807324 -0.027280385 0.15270853 0.19303697
000330 1d 56 13 3c d3 d5 0a bd db 91 07 3e dd a7 e2 bc
       0.008992699 -0.033895325 0.13239233 -0.027667934
000340 83 5a b9 bc 01 7a 21 bd 16 5f 5a bc b2 5f 10 3e
       -0.022626167 -0.039422993 -0.013328334 0.14099005
000350 4c 66 e9 3b 44 5e 8f bd 03 55 58 3e e7 68 a9 3d
       0.0071227904 -0.070004016 0.2112618 0.08271962
000360 17 29 29 39 0d c8 24 3e 6b c8 15 3d 5f 66 14 3d
       0.00016132403 0.16091938 0.036568087 0.03623044
000370 ed b9 18 3d 74 8a 46 3e f0 a8 bc bd b0 45 e6 3d
       0.037286688 0.19388753 -0.0921191 0.112437606
000380 34 cb 3f 3e ea dd ae 3d c6 04 77 be 8b 9c 6c 3e
       0.1872986 0.085384205 -0.24122915 0.23106591
000390 57 81 3c 3e 49 a8 84 3e a6 b2 8d bc cc e8 ab bc
       0.18408714 0.2590964 -0.0172971 -0.02098503
0003a0 5d f1 02 be d4 50 20 bd f4 e7 cf 3d 9d a6 32 bc
       -0.12787385 -0.039139584 0.101516634 -0.0109039815
0003b0 56 17 27 be ef ad e5 3d 94 e9 7f bd 79 07 bd bd
       -0.16317496 0.11214816 -0.062478617 -0.09229941
0003c0 8b 74 27 3e 0a de 92 3c d2 d8 02 3e 3c 9a fe bc
       0.16353051 0.017928142 0.12778023 -0.031079404
0003d0 fc 93 fa 3d a4 57 92 3d 3b 3d 48 3e 1a 7d 56 be
       0.12235257 0.071456224 0.19554608 -0.2094616
0003e0 0a d0 15 3e 99 2a d3 bc 66 3c 41 3c 36 0e 48 be
       0.14630142 -0.025777148 0.011794185 -0.19536671
0003f0 77 c8 f8 bc 8c 99 65 bc 9c 6b 24 be da ca b9 bc
       -0.030369027 -0.014013659 -0.16056675 -0.022679735

fc_c.1.bias f4 [32]
000000 55 42 8e bb cf 36 8a bd d5 8a ac 3d dd 5f 5e be
       -0.0043414035 -0.06748735 0.084249176 -0.21716256
000010 b0 7b fa 3d e8 f9 e6 bd 53 2d 56 3e 68 9b 72 bd
       0.12230623 -0.112781346 0.20915727 -0.05923024
000020 72 99 10 be 07 6a 95 bd c4 d1 98 3d 6a 50 88 bc
       -0.14121035 -0.07295614 0.074618846 -0.016639907
000030 32 ce 80 3e ed 5e 22 3b 45 e9 34 3e 54 cf 9f 3d
       0.25157315 0.0024775818 0.1766711 0.078032166
000040 3a d4 c7 3d 31 d3 38 3e 58 ca a9 bd e9 83 21 3e
       0.09757276 0.18049313 -0.08290547 0.15772976
000050 82 cf 39 3e 79 af 98 3d 94 d0 75 3e 0f 15 21 be
       0.18145564 0.07455344 0.24005347 -0.1573069
000060 cc a1 e6 3d fe f1 36 3e 4c 7a 60 3e 99 2f 5b bc
       0.11261329 0.1786575 0.21921653 -0.013378047
000070 ae 37 44 be b8 6d 99 3d d0 ec bb 3d 9d 7b 6c 3e
       -0.19161865 0.0749163 0.09176028 0.2309403

fc_c.2.weight f4 [32, 32]
000000 9d f1 1b bc 08 18 3e 3e 5d 41 33 be e6 bc 9e 3b
       -0.009518054 0.18563855 -0.17505403 0.004844296
000010 bb 5f 37 bb 33 54 0e 3e b8 e6 ef 3d 26 de 1e bc
       -0.0027980644 0.13899307 0.11713928 -0.009696519
000020 7e 9b bf bd 1d 16 89 3e 73 7e a1 bc 1d 68 cc 3d
       -0.0935583 0.26774684 -0.019713616 0.099807955
000030 96 c3 58 ba 63 89 d4 bc 2e e9 6e be 00 fa 8b 3e
       -0.00082688907 -0.025944417 -0.23331138 0.27339172
000040 f0 2e 86 bd e2 3a a1 bd e7 f4 9f 3d e1 74 0d bc
       -0.06551921 -0.07872559 0.07810383 -0.008633823
000050 12 f1 1a 3e e0 75 b3 3d 24 65 eb 3d 4f 8a 08 be
       0.15131024 0.08762717 0.114939004 -0.1333401
000060 08 8b 9f 3d 79 99 af 3d 0a 9d ea bc 14 84 95 bd
       0.0779019 0.085741945 -0.028639335 -0.073005825
000070 41 40 18 3e 40 09 07 3e bb af b5 39 4f 01 c8 3c
       0.14868261 0.13187122 0.0003465394 0.024414686
000080 0e 11 72 3d e6 9b e9 bd 10 27 06 3e 8d fa 14 3d
       0.059098296 -0.114066884 0.13100839 0.036371756
000090 a5 30 11 be 5b d5 87 be 8d 32 1f bd 57 54 d4 bd
       -0.14178713 -0.26529965 -0.03886657 -0.10367649
0000a0 33 9b df bd d7 79 b7 bd 75 e8 4f 3e 88 a0 66 be
       -0.10918274 -0.08958786 0.20303519 -0.22522175
0000b0 ae 7d eb bc 45 a9 8a 3d f6 2c 90 3d db 9e d2 3c
       -0.028746452 0.06770567 0.070398256 0.025710514
0000c0 6e 30 50 3d 9e 60 3f bd 27 6a 00 3e 81 c9 0d 3d
       0.050827436 -0.046723 0.12540494 0.034615997
0000d0 6e a0 34 be 75 00 40 be cf 99 b0 3d 10 89 54 3e
       -0.17639324 -0.18750174 0.08623087 0.2075541
0000e0 d5 1d 15 3e 9b 99 8e 3d 40 46 6c be 60 49 00 be
       0.14562161 0.06962892 -0.23073673 -0.1252799
0000f0 ea 28 52 3e 7c f1 e0 3d 29 54 4b 3d 26 7a ef ba
       0.2052342 0.109835595 0.04964081 -0.0018270656
000100 2f 47 3c be 55 5e 6d 3d 29 16 79 3e c0 16 00 be
       -0.1838653 0.05795129 0.2432486 -0.12508678
000110 10 ec 99 bd e3 5d a9 3d a5 66 e3 3d 25 c8 eb bc
       -0.075157285 0.082698606 0.11103562 -0.02878196
000120 d2 e0 79 3d eb a2 be bc 45 57 3d bd 48 54 ba 3d
       0.06100542 -0.023271045 -0.046225805 0.090981066
000130 96 92 46 bd 84 88 59 3d 45 10 92 3d 3a b2 83 be
       -0.04847964 0.053108707 0.071320094 -0.25721914
000140 f6 d9 71 bd 35 91 71 3d f6 ee 73 be 1c dd 43 3e
       -0.059045754 0.05897637 -0.23821625 0.19127315
000150 c9 bf 09 bd 24 63 7c be 15 75 89 3d f5 8f a0 3a
       -0.033630166 -0.24647194 0.06711785 0.0012249934
000160 0e e1 97 bd 24 d9 83 bd aa b7 28 be 89 b3 29 3e
       -0.07415973 -0.06437901 -0.16476312 0.16572393
000170 f7 4b c3 bc 41 13 b5 3d 1f ae 23 3e 7c a9 d7 bd
       -0.023839934 0.08841563 0.1598439 -0.105303735
000180 e0 4c 54 bc e2 df ef 3d 94 6b 85 be bb a5 52 3c
       -0.012957782 0.11712624 -0.26058638 0.012856896
000190 77 3f 0c 3e ca 01 0f be aa 0b ad 3d 10 95 2e be
       0.13696085 -0.13965526 0.0844949 -0.1704905
0001a0 f6 8d 86 bd e8 06 18 3e 86 a8 3d be f1 cf 60 bd
       -0.06570046 0.14846385 -0.18521318 -0.05488581
0001b0 1a 73 28 be 26 d7 43 3e 81 36 cd bc 24 d5 fc bc
       -0.16450158 0.19125041 -0.025050404 -0.030863352
0001c0 5e 50 67 be bd b2 b8 bd 2e 98 d5 3c f8 54 64 be
       -0.22589251 -0.090184666 0.026073541 -0.22298038
0001d0 ec 79 41 3e 04 0b 18 bd 05 14 2c 3e 4e 45 4d be
       0.18894166 -0.03711988 0.16804512 -0.20045969
0001e0 67 13 50 3e d1 3b b6 3d f4 bb 14 3d 7e d4 0a bd
       0.20319901 0.08898128 0.03631206 -0.033894055
0001f0 db c9 84 3e 61 04 ba 3d d5 fc 6d 3d 4a 28 58 be
       0.25935254 0.090828665 0.058102448 -0.21109119
000200 18 e9 5f 3e 29 56 2a 3e 92 b2 1e 3e 25 1f 1d bc
       0.21866262 0.1663443 0.15497807 -0.009589945
000210 29 87 4b be 91 c8 3a 3d ed e8 ae bd d4 a4 84 3c
       -0.19875778 0.04560143 -0.08540521 0.016191877
000220 2a b2 5f be b5 22 68 be a4 4a 29 3e c3 06 65 bc
       -0.21845308 -0.2266949 0.1653238 -0.013978663
000230 de 75 ce bd 98 16 d2 bd 87 f3 a8 3d c1 54 79 3d
       -0.10081075 -0.10258216 0.08249574 0.060871843
000240 ed c1 23 3e 9f ef ee 3d 03 0e 96 3d 58 7c 95 3e
       0.15991946 0.11666798 0.07326891 0.2919643
000250 83 05 19 bc 3e ba 2e bc 2a 34 2f be d3 7e c5 bd
       -0.009339693 -0.010664521 -0.17109743 -0.096433304
000260 2e 75 30 3d 0e 87 f9 3d 63 e8 a4 bd 93 54 5a 3e
       0.0430805 0.12183963 -0.08052137 0.21321325
000270 bd d6 98 be b7 96 30 be f5 d6 a2 bb 37 db f4 3b
       -0.29851332 -0.17244993 -0.0049694725 0.0074724215
000280 96 6c 08 3e 61 78 8f bd aa 33 cc bd 8b 9d dc 3d
       0.13322672 -0.07005382 -0.09970792 0.107722364
000290 fb 87 10 bc 3a 92 34 be 01 2d 9c 3d 9e d7 ab bd
       -0.008821483 -0.17633906 0.07625771 -0.08390735
0002a0 2c a8 c3 bd 61 77 51 3c 2c ad 1b 3c bf 29 cd bd
       -0.095535606 0.01278481 0.009501737 -0.10017728
0002b0 6d 39 90 3d 24 cc 92 3e 98 79 85 bb 12 73 98 3d
       0.07042203 0.28671372 -0.004073333 0.07443823
0002c0 33 45 b8 3c cd 21 61 3e 66 ff 2a 3e 3e 4d 9f be
       0.022493934 0.2198555 0.1669899 -0.3111362
0002d0 8a 81 25 3e 9a 4d 13 be 7f ba 09 3e 0b 13 71 be
       0.16162696 -0.14385071 0.13450049 -0.2354242
0002e0 bf 0c 5e 3e 23 e2 38 be 14 45 1c 3e 62 91 08 be
       0.2168455 -0.18055014 0.15260726 -0.13336709
0002f0 97 2a 2c 3e 60 e2 60 3c 26 c4 d8 3c d1 69 a1 bd
       0.16813122 0.013725847 0.026460718 -0.07881511
000300 c6 2e c6 3d d6 e2 c3 3d 96 82 7a 3d c4 c5 1d 3e
       0.0967689 0.0956475 0.061159693 0.15407473
000310 fe 3d ad bd db 0b 61 3e 9a bf 0e 3e 60 df 4b 3d
       -0.0845909 0.21977179 0.13940278 0.049773574
000320 4b cb 37 3c 1f 38 bb bc 75 91 e0 3d 93 0c ba bc
       0.011217902 -0.022853909 0.10965244 -0.022711074
000330 ee 7c 4f be e2 2c 16 bd 17 23 1c 3e e3 46 bd 3d
       -0.202625 -0.036663897 0.1524776 0.09242036
000340 d3 e0 c8 3d a0 dc 1d 3e 0d 3b 27 3e 13 eb 96 bc
       0.09808507 0.15416193 0.1633112 -0.018422639
000350 48 96 57 3b fe 85 76 bc bf a0 27 3e c6 ce c4 bd
       0.003289597 -0.015046595 0.16369914 -0.096097514
000360 4a a2 b1 3d 46 63 4e bd 51 5b aa bd 20 20 3f bc
       0.08673532 -0.050387643 -0.083181985 -0.011665374
000370 83 0b 2f bd c4 31 7e 3e 3c 99 9b bd c7 3b 89 bd
       -0.042735588 0.24823672 -0.075975865 -0.06700855
000380 ab ee 21 be 41 fd ad 3c 47 ed 40 3d 38 92 3e 3c
       -0.15813701 0.021238925 0.047101285 0.011631541
000390 a7 d8 f0 bc a2 21 64 3d bb df a5 bc 71 0e 04 3b
       -0.029400183 0.055696137 -0.020248285 0.002015021
0003a0 04 1b 85 bd d2 27 2c bb e4 a0 e0 3b 4b e3 d4 3c
       -0.064992934 -0.0026268852 0.006855117 0.025987288
0003b0 8f b1 52 3e 72 61 88 be 65 01 85 bd eb 77 8d be
       0.20575546 -0.26636845 -0.064944066 -0.27630553
0003c0 62 93 14 be f4 b4 89 bc 82 8d d1 bd 48 ff c5 bc
       -0.14509347 -0.016809918 -0.102320686 -0.02416958
0003d0 2d c8 dd 3c a2 d6 55 be 0a 1c e9 bd 6c 46 3f 3e
       0.02707299 -0.20882657 -0.11382301 0.18679208
0003e0 03 29 2f 3d 8e 9f c2 bd 2b 06 33 be c7 61 61 bc
       0.04276372 -0.09503089 -0.17482822 -0.013756222
0003f0 ea b8 54 bc ef ae 35 be 16 89 45 3e 87 de 7e 3d
       -0.01298354 -0.17742513 0.19290575 0.062223937

fc_c.2.bias f4 [32]
000000 2e fa 3f 3e 58 fc 30 3e 00 83 be 3d b3 b8 71 bd
       0.1874778 0.17283762 0.0930233 -0.059014034
000010 c3 0a 2d bd d8 fb d6 3d 7d ad 63 bd 07 0d 07 bd
       -0.04224659 0.10497254 -0.055585373 -0.03297141
000020 10 88 8f bd 74 eb e6 bd 04 28 2c 3e 26 e6 fa bc
       -0.07008374 -0.11275378 0.1681214 -0.030627321
000030 06 e3 06 3d 23 f5 67 bd 46 a6 40 3e 1d f4 b3 bd
       0.03293135 -0.056630265 0.18813428 -0.08786795
000040 c4 12 82 bd 2c c6 34 3e bb 33 a1 3d 1f b7 f7 bd
       -0.063512355 0.17653722 0.07871195 -0.120954745
000050 dd 00 29 3e 6d b4 a3 bc 3a 43 0e 3e 29 2b 5e 3d
       0.16504236 -0.019983495 0.13892832 0.05424038
000060 d0 c7 99 3d 69 9d d0 bd 6c ae 7a bb 4e 98 ca 3d
       0.07508814 -0.101862736 -0.0038250936 0.09892331
000070 fd ad cd 3c c0 0e a4 3b 0b 1f d6 bd e1 04 39 be
       0.025107378 0.005006641 -0.1045514 -0.18068267

fc_c.3.weight f4 [32, 32]
000000 31 2e 02 bd 05 f4 d4 bd 2f ca 14 3e 32 90 2c 3d
       -0.031782333 -0.103981055 0.14530252 0.042129703
000010 bd 89 2b be 23 ce 30 be f1 15 b0 bd f1 b8 28 3d
       -0.16751762 -0.17266135 -0.08597935 0.041192
000020 e6 73 83 bd de 85 f3 bc 85 1d 58 bd 5a 6c 28 be
       -0.0641859 -0.029726919 -0.052762527 -0.16447583
000030 17 c1 34 3d ee dc ea 3d 8f 7c a6 3d fe 2b 36 be
       0.044129457 0.1146792 0.081292264 -0.17790219
000040 e6 01 64 bc 6a eb 63 3d cf c9 d3 bd 3b 80 59 bc
       -0.013916468 0.05564443 -0.10341226 -0.013275201
000050 f8 12 a1 3d 21 70 f5 3d 85 55 5f be 7e 09 06 bd
       0.07864946 0.119842775 -0.21809967 -0.032723896
000060 6b 1a a7 3c 0e 68 14 bd 2a 84 80 3d 92 ee 3a bd
       0.02039834 -0.036232047 0.06275208 -0.045637675
000070 49 dc 3d be 24 48 02 be 43 f0 b3 3d b3 a7 7d 3e
       -0.18541063 -0.12722832 0.08786061 0.24771003
000080 9e a0 a0 3d e4 08 0d 3e 35 3e 42 3e 41 a4 b5 3d
       0.07843135 0.13772923 0.18969043 0.088692196
000090 e7 eb 04 3e 96 67 49 3c 51 b8 8d be df 31 c3 bd
       0.12980615 0.012292763 -0.27679685 -0.095309965
0000a0 9c 0b ff bc c3 5a d2 3d dd f6 31 3e 8f 81 5c be
       -0.031133465 0.10271218 0.17379327 -0.21533798
0000b0 05 a7 17 be 85 c6 69 be 0e 63 b1 bd 57 4d ea 3d
       -0.14809807 -0.22829635 -0.08661471 0.11440533
0000c0 04 14 ef bd 86 70 8e bd 14 f8 ca 3d 5a db 2b 3e
       -0.116737396 -0.06955056 0.099105984 0.16782895
0000d0 b8 cb 7c 3d 1e d4 b6 3d 82 05 89 be ae e9 1d 3e
       0.06171772 0.08927177 -0.26762015 0.15421173
0000e0 36 86 85 3d 3d 84 4d bd 6c e0 4b be be 38 89 bd
       0.06519739 -0.05017494 -0.19909829 -0.06700276
0000f0 31 c5 f2 3d 0c 7b 2c 3e a3 bb 17 be aa 9f 1a 3e
       0.118540175 0.16843814 -0.14817671 0.1509997
000100 17 74 fa bd 42 37 e3 3d ae a5 0c 3c b8 23 46 3e
       -0.12229174 0.11094524 0.008584423 0.19349563
000110 1c 6b 9b 3d a9 60 17 3e 8d bb 15 bd e6 cd 3e 3d
       0.07588789 0.14782967 -0.036555815 0.04658308
000120 bd 5e 0f bd df c8 82 3d 3a 15 c9 3d 6e e8 06 be
       -0.03500246 0.06385969 0.09818502 -0.13174602
000130 a5 c3 4a bd 94 22 3f 3d 58 46 cd bd 42 e8 7b 3d
       -0.049502987 0.046663836 -0.10023183 0.061500795
000140 e4 9a 97 bd 72 3d 19 be c3 01 ed 3d 31 bc a1 3d
       -0.0740259 -0.14964846 0.11572602 0.07897223
000150 8e 38 d5 3c ba 6f e2 3d 76 49 07 3d c9 51 5f bd
       0.026027944 0.110564664 0.033029042 -0.054521356
000160 a7 36 d1 bd 57 f2 fa 3d c9 b8 de 3d 7a 4d 39 bd
       -0.10215502 0.12253254 0.10875089 -0.045239903
000170 4a e4 bb bd b0 42 a2 bd 03 45 b9 3c fd b1 d3 3c
       -0.09174402 -0.07922876 0.022615915 0.025841707
000180 4b 91 03 3e 28 e5 50 bd 8c 05 58 be 9d 76 b1 3d
       0.12848394 -0.05099979 -0.21095866 0.08665202
000190 93 0b 2b 3d f3 42 26 be e8 e1 6a 3e 20 41 5b be
       0.041759085 -0.16236477 0.22937739 -0.21411562
0001a0 f8 fb 60 3e ce b4 a1 bc 22 6b 4d be 69 3c 14 3d
       0.21971118 -0.019739535 -0.20060399 0.036190424
0001b0 5b 0e b2 bd 6d 11 b1 bc e0 a5 c2 3a 58 39 b0 bd
       -0.08694144 -0.021614755 0.001485046 -0.086046875
0001c0 d7 c8 21 3e 13 0a 4c 3e 47 6b a1 3e 0b e9 d2 bc
       0.1579927 0.19925718 0.3152716 -0.02574589
0001d0 07 3f b9 3d 54 93 0f be a8 7d 76 3e e0 ed c6 bd
       0.09045225 -0.14021045 0.24071372 -0.0971334
0001e0 6c 19 8c 3e 02 73 93 be 78 87 c9 3d 43 a8 d9 bd
       0.27363145 -0.28798681 0.09840292 -0.106277965
0001f0 d9 e1 86 3e 87 f6 39 3e 99 53 1c 3d 92 92 2d be
       0.26344183 0.18160449 0.038165662 -0.16950443
000200 e8 db 00 3e 59 da cb bd fc a7 46 3e 65 75 89 bd
       0.12583888 -0.09953756 0.19400018 -0.06711844
000210 80 eb 71 be 0d b6 4f bb 2c 54 22 bd a7 38 85 3e
       -0.23624992 -0.0031694204 -0.039631054 0.26019785
000220 7f cc 2a 3d d8 78 57 be 2a ff e0 3d 2b 00 51 be
       0.04169893 -0.21042192 0.10986169 -0.2041022
000230 c3 ad 37 3e 87 7f e9 3c cd 56 73 3e 00 bd c9 bd
       0.17937379 0.028503193 0.2376358 -0.09850502
000240 3d a1 1f be c2 87 2d be 48 83 34 3d 1e e4 a5 3d
       -0.15588851 -0.16946319 0.044070512 0.081001505
000250 54 43 45 be ca b9 e8 3d c8 db 1d 3d f7 ae 61 3e
       -0.19263965 0.113635615 0.038539678 0.220394
000260 a3 e5 13 be 5a 97 16 3e 82 79 78 bd 12 d3 87 ba
       -0.14443068 0.14706174 -0.060662754 -0.0010362586
000270 fe 3c 3b be 3c 44 ff bc c7 73 d6 3c a3 ec 63 3e
       -0.18284985 -0.031160466 0.026178254 0.22258238
000280 00 8d 3c be 91 e8 e1 bd d0 07 8c 3b 11 d5 b2 3c
       -0.18413162 -0.11030687 0.0042733923 0.021830114
000290 b5 1f 08 3e a7 7b a7 be 2a f1 e5 bb 56 d1 ea 3d
       0.13293345 -0.32711527 -0.0070172744 0.11465709
0002a0 1f 54 e3 bd fc 16 55 3d 6c 46 14 3e b1 80 87 bd
       -0.11100029 0.052023873 0.14479989 -0.06616343
0002b0 4f 77 f8 bd 46 7b 43 bd 2d dc 05 bd 9b a0 15 be
       -0.12132131 -0.047724985 -0.03268068 -0.14612047
0002c0 6d 93 28 3e 0e 31 83 bd 02 85 1b bd af 2c f2 bb
       0.16462488 -0.06405841 -0.037968643 -0.0073905806
0002d0 e2 af 9b 3d c7 ad 55 be 8a 4b 6c 3e f5 9e 79 3c
       0.07601906 -0.20867072 0.23075691 0.015235652
0002e0 dc 6b a9 bd 26 4a 02 3d be b3 0a 3e 0d 5f 0c be
       -0.08272526 0.031808995 0.13545129 -0.13708134
0002f0 6d ce a7 bb 94 8e 13 be 1c 47 35 3e f4 4b 14 3d
       -0.0051210434 -0.14409858 0.17702907 0.036205247
000300 04 8b 24 3e 25 13 c6 3d d5 3d d5 bd 5c 55 3a 3e
       0.16068655 0.0967162 -0.10412184 0.18196625
000310 39 07 c7 3d fa ae 4c 3e 9f b0 a6 3d cd 62 d0 bd
       0.097181745 0.19988623 0.081391566 -0.10175095
000320 cf 79 04 3d 2d 77 ef bc bd 06 6b be 0a 4b ff 3d
       0.03234273 -0.029231632 -0.22951789 0.124654844
000330 07 06 01 3d 9c 03 4b 3e 10 eb 49 3c 56 2a 3e 3d
       0.03149989 0.19825596 0.01232411 0.046427093
000340 42 20 00 be 15 d5 23 3e 73 09 30 3d ec ee 14 be
       -0.12512305 0.15999253 0.04297776 -0.14544266
000350 e2 d2 91 3d 74 42 67 3e 0c 5f d1 bd 6b 2a 84 3d
       0.07120301 0.22583944 -0.10223207 0.06453403
000360 3e 22 2c 3e 28 a3 16 be b4 10 2c 3e c8 ac 63 be
       0.16809937 -0.14710677 0.16803247 -0.2223388
000370 5b 61 51 3e 93 04 89 3e f8 70 6e be 64 a0 eb bb
       0.20447294 0.26761302 -0.23285282 -0.007190751
000380 85 1d db 3d a3 df bd 3d 42 79 69 bd a7 67 07 bc
       0.1069899 0.09271171 -0.057000406 -0.008264459
000390 da a6 8e bd d0 ec 19 bd d9 00 71 bd 59 fa 31 be
       -0.06965418 -0.037579358 -0.0588387 -0.17380656
0003a0 f1 34 01 3e 47 36 2d be 3e 5c 00 3e 33 4c d3 bd
       0.12617852 -0.16915236 0.12535188 -0.10317268
0003b0 ac 6f 29 3e e0 a9 97 3d 20 49 cc 3d 96 4b 33 bd
       0.16546506 0.07405448 0.09974885 -0.043773256
0003c0 f7 14 0e 3e fa 36 ad 3d ff 15 4a 3d 80 61 d3 bd
       0.13875185 0.084577516 0.049337383 -0.10321331
0003d0 bb 9b 17 bd 9a 4b d7 bd 3f 14 b7 bd c9 ca 85 3c
       -0.03701375 -0.10512467 -0.089394085 0.016332047
0003e0 38 67 ba 3d 3e 80 3b 3c ae 8b 44 bd 8e 98 05 3e
       0.09101719 0.01144415 -0.04798477 0.13046476
0003f0 6f 47 ef 3d 5a 8b 16 3e 5f c4 33 3e e1 aa d4 bd
       0.11683547 0.14701596 0.17555378 -0.10384155

fc_c.3.bias f4 [32]
000000 43 69 83 3d 16 ac 82 3d 1d f8 12 be 2c 18 76 be
       0.064165615 0.06380479 -0.1435246 -0.24032658
000010 9f a8 48 3c fc 4b b4 bd 24 09 ff bd 00 25 2b bd
       0.012247234 -0.08803555 -0.12452915 -0.041783333
000020 a6 a6 46 3e a4 bb e4 bd e0 28 09 be aa b2 9b bb
       0.19399509 -0.11168602 -0.13394499 -0.004751523
000030 10 f9 8e 3d 52 dd 2c 3c 6a 5e 10 3e b9 80 b6 bd
       0.06981099 0.010550814 0.14098516 -0.08911271
000040 59 39 aa bd c6 8b 6f 3c 61 ef 8b bd 51 37 cd 3d
       -0.083117194 0.014620727 -0.06832767 0.100203164
000050 f7 73 49 3d 93 e3 18 be 24 7d 03 3e 6b 3d 5b be
       0.04918286 -0.14930563 0.12840706 -0.21410148
000060 61 d8 15 3e 28 7d 9d 3d 74 b5 49 3d 1d 7a 75 3e
       0.14633323 0.07689887 0.049245313 0.23972364
000070 45 aa 4f be ff 19 fe 3c 54 fc 04 3e b7 a0 2b bd
       -0.20279796 0.031018255 0.1298688 -0.041901316

fc_c.4.weight f4 [32, 32]
000000 83 15 ee bb 85 06 2e 3d 77 1a df bd e4 2c 2e 3c
       -0.007265748 0.042486686 -0.1089372 0.01063082
000010 3b 6d 27 3e 5e 77 82 bd a0 1a 4a 3e ab d3 58 be
       0.16350262 -0.06370424 0.19736719 -0.21174495
000020 6a 59 77 3e f5 aa 13 3b cc ee 96 bd f7 90 2a 3d
       0.24155203 0.0022532318 -0.07369766 0.041642155
000030 2d a9 dc 3d 61 44 19 3e f6 86 0e be d3 b3 74 3e
       0.10774455 0.1496749 -0.13918671 0.23896722
000040 53 22 80 3e 4a 3f 1e 3e 7c 8b de 3d 56 5d 0e be
       0.25026187 0.1545383 0.10866448 -0.13902792
000050 c0 57 42 3d f9 9b 44 bd c6 24 5b 3e a6 ad 21 be
       0.047446966 -0.04800031 0.21400747 -0.15788898
000060 da 0c 83 3e 4d 28 64 bd 71 c5 9c 3e 34 c7 d1 bc
       0.25595742 -0.055702496 0.30619386 -0.025607683
000070 c5 ef 09 3e 85 a8 33 3d 7b bf c9 3c eb 52 16 be
       0.13470371 0.043861885 0.024627438 -0.14680068
000080 4e 37 00 be 8e df 5a 3d 33 7c b9 bd ae 74 78 3e
       -0.12521097 0.053435855 -0.09056892 0.2426326
000090 3a 13 7d 3c 0e 10 d0 bd 64 12 41 3e 95 7b 11 be
       0.0154464785 -0.10159312 0.18854672 -0.14207299
0000a0 c7 9a 1d 3e b5 6e e5 3d af 38 62 be 75 48 23 bc
       0.15391074 0.11202756 -0.22091936 -0.009966006
0000b0 fc 5b 70 bd fd 31 80 3e 22 b8 af bd 73 93 21 3e
       -0.058681473 0.25038138 -0.085800424 0.15778904
0000c0 eb 30 60 3e e7 6d 3c 3e 6a 84 40 3e 7d c4 61 be
       0.2189366 0.184013 0.18800512 -0.2204761
0000d0 1e ac 1c 3e e6 50 6f be 4d c0 33 3e f6 c2 02 be
       0.15300032 -0.23370704 0.17553826 -0.12769684
0000e0 9c 19 0d 3e dd 83 78 be b5 93 82 3e 3f 97 6e be
       0.137793 -0.24269052 0.25503317 -0.23299883
0000f0 77 c2 5e 3e be 9d 7a 3d 17 e6 3a be e6 1a c5 bd
       0.2175387 0.06118559 -0.18251835 -0.09624271
000100 c8 d5 78 bd bc aa 2d be a9 95 39 3e 9b 00 c4 3c
       -0.060750753 -0.16959661 0.18123497 0.02392607
000110 30 35 d2 3c b0 03 27 3e ba 64 15 3d 4d 9b 11 3d
       0.025660127 0.1631 0.036473013 0.035548497
000120 77 63 49 be 2c 56 32 be a8 3e 3d 3e 2e 51 1b be
       -0.19666849 -0.17415684 0.18480933 -0.15167686
000130 23 83 f4 3d af 2f 91 bc c6 71 0b 3d 8e ba ba bd
       0.11939075 -0.017722933 0.03404405 -0.09117614
000140 6c 07 2d be 24 bc 72 be 81 55 73 be d7 28 15 3e
       -0.16897362 -0.23704582 -0.23763086 0.1456636
000150 fa 4c cd bc 2c 33 82 3e db 5d 95 bd 73 aa bd bc
       -0.02506112 0.25429666 -0.07293292 -0.023152566
000160 78 cb 47 be 55 3f 02 3e 55 c9 c8 bc 68 73 85 3e
       -0.19511211 0.12719472 -0.024510065 0.2606461
000170 c2 dc 84 3d c6 2c dd bd a5 5d 8a 3e 64 e9 6e 3e
       0.06487419 -0.107995555 0.2702457 0.23331219
000180 fc 63 f8 bd 05 9a bc 3c aa cf 8b bd af 62 03 3e
       -0.121284455 0.023022661 -0.06826718 0.12830614
000190 1c df 24 3e 5f e2 22 3e 6b 16 7e 3e d7 25 84 be
       0.16100734 0.15906666 0.2481324 -0.2581012
0001a0 66 15 cf 3c 38 38 97 3d d2 0a f5 3c 8d e9 4b 3e
       0.025278758 0.0738377 0.029912386 0.19913311
0001b0 5e 48 d8 bd ca 41 20 3e 01 a2 b5 bd 4d 7c 35 3e
       -0.10560678 0.15650097 -0.088687904 0.17723198
0001c0 a0 38 71 3e 82 89 fe 3d f7 ed 2a bd af a5 5f be
       0.23556757 0.12428571 -0.041730847 -0.21840547
0001d0 b0 c2 16 3e fc 00 2b 3d aa 98 0e be ed 40 b9 3d
       0.14722705 0.041748986 -0.13925424 0.09045587
0001e0 62 c3 97 3e d8 78 e0 3c ae 6c 51 bd 29 cb 90 be
       0.29641253 0.027401373 -0.051129036 -0.2828
0001f0 38 9f c7 bc ac d3 5d b9 36 a5 58 be 68 9c 67 bd
       -0.024367914 -0.00021155056 -0.21156773 -0.056545645
000200 59 f6 fc bd dd c8 fb 3c 62 c3 77 bd d5 1c 21 3e
       -0.123516746 0.030735428 -0.060489066 0.15733655
000210 9e 4a a8 bd 9d 00 00 3e 1e 34 d6 bc 39 b4 b2 3d
       -0.08217357 0.12500234 -0.026147898 0.08725781
000220 6b d9 db 3d bd 6a 93 bd 86 cb 43 be fe f5 24 3e
       0.107348286 -0.07198093 -0.19120607 0.16109464
000230 99 65 da 3c 29 45 97 3d 45 3b 2f 3e be e5 73 3b
       0.026659774 0.07386238 0.17112453 0.0037215794
000240 4e 82 7d 3c 1c c0 a7 bc 11 91 a7 3d 03 82 a1 bc
       0.015472962 -0.020477347 0.08181966 -0.019715315
000250 44 80 47 3e 8d 08 33 be 74 9e 21 3e 9b c2 f8 bc
       0.19482523 -0.1748373 0.15783101 -0.030366233
000260 81 6d 55 3c fb 6f 60 bd 3b 5c b7 3d 53 5e bf bd
       0.013026596 -0.054794293 0.089531384 -0.09344163
000270 90 6b 4e 3d 36 21 43 be ea db 0f 3e b6 2a 1c bd
       0.05039555 -0.19055638 0.14048734 -0.03812667
000280 51 c9 a4 bd fb 53 17 3c cb 5e d5 3d f2 53 f9 bd
       -0.080462106 0.009236331 0.10418471 -0.121742144
000290 0f 2a 22 be da aa c9 3d a5 b6 8a bc b9 9b 64 3e
       -0.15836357 0.098470405 -0.016932795 0.22325028
0002a0 7d ab 79 be f9 f5 37 be 01 0c 03 3e 12 03 6f be
       -0.24381824 -0.17964925 0.12797548 -0.23341015
0002b0 31 fd 1c 3c 25 c4 85 3c 6c 86 1f bc 3d 25 d5 3c
       0.00958185 0.01632888 -0.0097366385 0.026018733
0002c0 48 0f 11 be dc 6e c6 bd b8 2c d6 bd bf 19 60 3e
       -0.14165986 -0.096891135 -0.10457748 0.21884821
0002d0 78 fb c9 bd ae 9e 8f 3e 2b 49 8f be 8e 2e 65 3e
       -0.09862417 0.2805075 -0.2798551 0.2238104
0002e0 14 cd 26 bd ec f3 05 3e 43 09 99 be c9 47 24 bd
       -0.04072292 0.1308133 -0.2988988 -0.040107522
0002f0 23 75 e5 bd 74 25 85 bc 68 d7 e3 3d 7d eb 5b 3e
       -0.11203983 -0.01625321 0.1112507 0.2147655
000300 cb 9b 74 be d7 93 20 be 9a 4f 04 bd 5a 71 54 3c
       -0.23887555 -0.15681396 -0.032302476 0.012966478
000310 af a5 75 be b1 ae b4 3d 70 36 4a 3e 7f c5 83 bd
       -0.23988985 0.08822382 0.19747329 -0.06434154
000320 bf 2f 4e 3e 98 b9 4e be 27 e1 35 be 81 33 eb 3d
       0.20135401 -0.20187986 -0.1776167 0.11484433
000330 4d 5d 38 3e 4f fe 9b 3d eb c3 21 3e f7 36 f6 3d
       0.18004341 0.07616865 0.15797393 0.120222025
000340 41 9c 27 3e 9e 68 db 3d 90 7c 5b 3d ed 78 17 3e
       0.163682 0.107133135 0.05358559 0.14792223
000350 97 41 42 be 3c d5 61 3c 6a 82 97 bc f4 f3 83 3d
       -0.18970333 0.013783749 -0.018494803 0.06443015
000360 fc 5d 90 bd bd 02 7a bd 78 91 4a 3e 69 3a 05 3e
       -0.07049176 -0.061037768 0.19782054 0.13010563
000370 14 62 c9 3d 8e 1d f0 bd 82 f3 a5 3d 78 25 db 3d
       0.0983316 -0.11724387 0.08103086 0.10700506
000380 91 b3 00 be ff c2 31 be 68 69 01 3e 9b 00 c6 3d
       -0.12568499 -0.17359541 0.12637866 0.09668084
000390 c3 53 b0 bd b8 2b 7b 3d 5f b6 47 3e bd 18 96 3d
       -0.08609726 0.06132099 0.19503163 0.07328937
0003a0 02 59 36 3e 58 fe a9 3d 6e e5 03 be 3b 08 dd bb
       0.17807391 0.08300465 -0.12880489 -0.006745366
0003b0 0e 09 6d bd 0f 8a c7 bc 72 48 da bd c3 c7 90 bd
       -0.057869963 -0.024357824 -0.10658349 -0.070693515
0003c0 36 cf 84 3c f8 3a 02 be 72 c1 ca 3d 9c 99 f4 bd
       0.016212087 -0.12717807 0.09900178 -0.11943361
0003d0 45 aa 21 3e 9e 31 47 be 22 24 18 3e 3e cf 1a be
       0.15787609 -0.19452521 0.14857534 -0.15118119
0003e0 50 28 36 3d b8 84 80 3d d7 89 2b 3e 3f ce 82 bd
       0.04447204 0.06275314 0.167518 -0.063869946
0003f0 71 af 0e 3e a6 aa 21 3e 85 bc 25 be 67 dd 83 3d
       0.13934113 0.15787753 -0.16185196 0.064387135

fc_c.4.bias f4 [32]
000000 c4 fc 25 be 4e d1 3f bd 14 1e 2e bd fc bc ba 3c
       -0.16209704 -0.046830468 -0.042509153 0.022795193
000010 79 ac 09 be f9 e9 65 3e b7 77 93 3d 17 a5 2d 3d
       -0.134447 0.22452535 0.07200568 0.04239377
000020 75 b7 6e bc 19 fa 4b 3d 7a 05 29 be 5a 83 cb 3d
       -0.014570107 0.04979906 -0.16505995 0.09937163
000030 55 45 b9 bc a6 c3 52 3e 3b 2a 07 be c0 88 4b 3b
       -0.022616068 0.20582446 -0.13199703 0.003105685
000040 d1 dc dc bd 31 fe 12 3e 91 35 6f 3d 9a 34 76 3c
       -0.10784305 0.14354779 0.058400694 0.01502719
000050 08 85 f0 3d 11 4a 86 3d 8a f2 e7 bd d8 2c bc 3a
       0.11744124 0.06557096 -0.113255575 0.0014356626
000060 5c 5e 15 be c7 1d 97 bd 95 72 47 3e d0 f5 53 3d
       -0.14586776 -0.073787265 0.19477303 0.051748097
000070 d6 ba 4b 3d ea 80 10 3e cc 81 a5 3c 80 bc 28 bd
       0.049738728 0.14111677 0.020203494 -0.041195393

embedder._B f4 [3, 93]
000000 4f 0d 40 c0 3b 97 3d c2 d3 a6 ef c0 d1 0f b9 41
       -3.0008123 -47.397686 -7.4891143 23.132723
000010 f4 bb 96 bf 54 ff 9b c0 b9 5b 9a c1 98 9e 6a 41
       -1.1776109 -4.874918 -19.294786 14.663719
000020 3c f9 3f c1 91 a0 c8 c0 b6 ca 74 41 02 d1 a3 c1
       -11.998348 -6.2696004 15.29949 -20.477055
000030 77 1a 00 42 4f a5 8a 40 14 3d c0 40 86 91 2c 41
       32.025845 4.3326793 6.007456 10.785528
000040 55 9d 1b c1 f4 15 e5 c1 9e 44 c7 c1 de f9 3a c1
       -9.725911 -28.63572 -24.908504 -11.686003
000050 56 a6 7f c0 2f 9a 88 c1 87 8f ae c0 92 3f a2 41
       -3.9945273 -17.075285 -5.4550204 20.28104
000060 cd f2 b1 c1 27 41 f2 c0 81 c3 b4 41 52 6e ee c0
       -22.243555 -7.570453 22.59546 -7.450967
000070 29 80 94 3f d8 fe 20 40 16 61 13 42 ae 62 f7 bf
       1.1601611 2.5155544 36.84481 -1.932699
000080 1f e2 8d 41 4e d4 bc c0 66 ff 0e c1 30 00 0d 41
       17.73541 -5.900916 -8.937353 8.812546
000090 68 44 bc 40 d2 d6 fa 3f 65 c8 06 42 14 87 44 3e
       5.8833504 1.9596808 33.695698 0.19192153
0000a0 86 3d a7 41 a6 e1 70 41 b3 a6 98 c1 a6 62 0b c2
       20.90504 15.05509 -19.081396 -34.846336
0000b0 84 1d 22 c1 2b bc d1 bf f9 94 ad c1 7f 9a 47 c1
       -10.132206 -1.6385549 -21.69774 -12.475219
0000c0 39 f5 68 42 ba 96 62 3e 15 40 d2 3f a4 59 3d 42
       58.239475 0.2212781 1.6425806 47.33754
0000d0 09 04 77 c1 d4 2f 36 c2 26 25 57 3f 27 52 22 42
       -15.438485 -45.546707 0.8404106 40.580227
0000e0 95 7e 3a 42 c1 6e 91 3f 15 70 e0 41 a2 ad d8 40
       46.623615 1.1361924 28.054728 6.7711954
0000f0 2b c2 f7 c0 c0 9c f5 41 98 8b bc 40 1d 7c 22 42
       -7.742452 30.701538 5.8920403 40.621204
000100 67 0a 0d c2 17 c5 4c c2 61 fd 47 c1 bd fb 6f 41
       -35.26016 -51.19247 -12.49936 14.99896
000110 5d 8c bd c0 fa 11 86 41 8a 6f 17 42 3b 6c 9c c1
       -5.923384 16.758778 37.858925 -19.552847
000120 02 a4 be c1 f3 f9 39 40 c0 dd 12 c1 9e cc 07 42
       -23.830082 2.9058807 -9.179138 33.94982
000130 e3 12 0a c0 11 6a 10 c1 09 7e 4a c1 33 a2 e7 41
       -2.1574028 -9.025895 -12.65577 28.954199
000140 05 e1 77 41 61 fe fa bf c0 fe 36 c1 ea 3c 53 c1
       15.492436 -1.960888 -11.437195 -13.202372
000150 a3 f3 33 c2 b6 1a b2 3d 64 24 22 c2 6d b0 4c 41
       -44.987926 0.08696501 -40.535538 12.793073
000160 a1 bc cb c1 88 5f ef c1 21 78 2c 42 86 10 ad c1
       -25.467104 -29.921646 43.117313 -21.633068
000170 6e 91 0c 40 df cc 43 41 fc 3d 85 c0 63 ff 58 42
       2.1963763 12.237517 -4.1638165 54.2494
000180 03 37 d3 41 79 9b 2b 41 92 41 bd c1 77 46 1b 42
       26.401861 10.725457 -23.657017 38.818813
000190 fe 63 7e c1 b7 ec 3e 42 07 ad 5f c1 4e 73 e9 c1
       -15.899412 47.731167 -13.979743 -29.181301
0001a0 bb d6 16 42 18 6c 03 42 dc 3d bd c0 ab 42 51 c1
       37.709698 32.85556 -5.913801 -13.078776
0001b0 bc 6a d5 c1 95 74 91 c0 37 34 a1 c1 f6 cc 6d 42
       -26.677116 -4.545481 -20.150496 59.450157
0001c0 13 dd 9d 41 91 44 4b c2 19 de b1 c0 94 3e fb 3f
       19.732946 -50.81696 -5.5583615 1.9628472
0001d0 e7 2a f3 c1 e8 d6 4e 41 24 38 b1 41 73 a1 79 41
       -30.395948 12.927467 22.152412 15.601916
0001e0 3f 97 d5 41 58 78 9d bf 52 b4 85 c1 5b 9c 08 c1
       26.69885 -1.2302351 -16.713047 -8.538173
0001f0 a0 00 43 41 a3 6f 10 42 06 f9 5b c1 d7 dc 86 41
       12.187653 36.10902 -13.748297 16.857832
000200 20 ea 96 41 8d 95 8d c0 7e a9 3a c0 33 32 0a 42
       18.864319 -4.4245057 -2.916595 34.549023
000210 11 bb 86 41 9f 83 b0 c1 29 f8 9a 41 d5 0e b8 c1
       16.841341 -22.064268 19.371172 -23.007242
000220 d1 aa cf c1 71 af 67 41 85 3f ec 40 1c ef 89 c2
       -25.958406 14.480332 7.382754 -68.96701
000230 52 72 ae c1 2e 97 8f 41 3a bb eb 40 da 5a d7 c1
       -21.80582 17.948818 7.366605 -26.919361
000240 d7 28 9a c2 88 06 e7 41 18 cb 12 41 ce fb 91 41
       -77.079765 28.87819 9.174583 18.247952
000250 9b ec ee c1 21 d8 7a c0 e1 a5 f9 41 23 75 c2 41
       -29.86553 -3.9194415 31.205996 24.307196
000260 f2 52 15 42 72 c9 e5 c0 b3 b6 0b 42 89 f6 f0 41
       37.331 -7.1808405 34.928417 30.120378
000270 99 0a 91 c1 84 3e 2a bc 48 03 78 c1 e0 d3 b8 c1
       -18.130175 -0.010390881 -15.500801 -23.103455
000280 7a 4d e9 41 9c 08 8c c1 93 32 99 42 b7 b1 ee c0
       29.16283 -17.504204 76.59878 -7.4591937
000290 ce a6 b3 c1 3f 53 8d 40 cd 99 96 40 24 07 97 41
       -22.456448 4.416412 4.7062745 18.878487
0002a0 c8 80 a9 c0 2c 74 85 40 f7 96 93 c1 9a a1 6b c1
       -5.2969704 4.170431 -18.448713 -14.7269535
0002b0 ff 99 b9 41 55 cf 80 40 27 26 8a 41 cb e2 03 42
       23.200193 4.025309 17.26863 32.971478
0002c0 ab 29 01 42 5e 30 17 c0 2c dd 03 c1 7b 6d c7 c0
       32.29069 -2.362327 -8.241497 -6.2321143
0002d0 39 1e ad 40 ba 85 e6 41 74 06 96 c1 85 52 1d c0
       5.4099393 28.815296 -18.75315 -2.4581616
0002e0 f2 fc 0e 42 b7 69 a4 c1 67 52 e6 c1 c1 df 35 c1
       35.747017 -20.551619 -28.790236 -11.367127
0002f0 1e e7 82 c1 ce c1 26 42 eb 90 2c c1 ed 44 71 3f
       -16.36285 41.689262 -10.78538 0.942458
000300 2e d7 07 c2 29 54 8a c1 c6 99 25 40 f3 2f 49 c2
       -33.960136 -17.291094 2.5875106 -50.296825
000310 79 06 9b 41 bc c6 e3 41 6e 1d 97 c1 67 c3 f7 c1
       19.37816 28.472038 -18.88937 -30.970411
000320 4c 96 8f 41 bd 25 25 c2 17 8d 9d 40 b2 1b 2d c1
       17.948387 -41.286854 4.923473 -10.819262
000330 e3 19 3e 41 a9 2f 06 41 01 e2 f8 c1 73 0f 44 41
       11.88132 8.386636 -31.110353 12.253772
000340 86 ac 18 41 2a bd 3e 40 de 9d 24 42 18 ef 91 3f
       9.54212 2.9802957 41.154167 1.1401091
000350 52 ee e9 bd 7e 36 bd 41 49 a9 6a c2 35 79 c4 c1
       -0.11422409 23.651608 -58.665318 -24.559183
000360 47 da 80 41 c9 c9 2b 42 28 b9 ef 41 39 75 d6 41
       16.10658 42.947056 29.965408 26.807238
000370 dd a5 23 42 6b f1 07 42 43 bb 0b c1 ff 29 ce 41
       40.911976 33.98576 -8.733218 25.770506
000380 56 ae b7 41 5b 40 d2 41 7c 60 fe c1 04 58 ee c1
       22.960125 26.281424 -31.797112 -29.792976
000390 a8 99 57 41 01 15 3b 42 91 38 06 42 d0 0f 87 41
       13.475014 46.77051 33.55524 16.88272
0003a0 d5 7d fb 41 29 71 ca c1 d8 7c 0a c1 7f 30 df c0
       31.436441 -25.305254 -8.655479 -6.97467
0003b0 d7 88 ff 41 81 4b ae c1 f3 20 ab 40 a8 14 ea c0
       31.941816 -21.786867 5.347772 -7.3150215
0003c0 04 fe 5e c2 14 5d c5 c1 a1 ec 2f 3d af 48 5f c2
       -55.748062 -24.670448 0.042950276 -55.82098
0003d0 44 a0 13 c1 91 69 07 c2 43 98 04 42 42 9a 22 41
       -9.226627 -33.853092 33.148693 10.162661
0003e0 b2 93 5c 41 c2 a1 29 c0 dd 31 d1 40 e3 c6 a5 bd
       13.786058 -2.650498 6.537337 -0.08094575
0003f0 a5 23 d1 c0 ff a1 93 c1 27 ac c1 41 0b d9 89 3e
       -6.535601 -18.4541 24.209059 0.26923403
